…
2020-05-15 13:54:00.857299: I tensorflow/core/common_runtime/gpu/gpu_device.cc:1053] Created TensorFlow device (/job:localhost/replica:0/task:0/device:GPU:2 with 10767 MB memory) -> physical GPU (device: 2, name: Tesla K80, pci bus id: 0000:8a:00.0, compute capability: 3.7)
2020-05-15 13:54:00.984922: I tensorflow/core/common_runtime/gpu/gpu_device.cc:1053] Created TensorFlow device (/job:localhost/replica:0/task:0/device:GPU:3 with 10767 MB memory) -> physical GPU (device: 3, name: Tesla K80, pci bus id: 0000:8b:00.0, compute capability: 3.7)
making model...
compiling model...
number of regression parameters:  1
_________________________________________________________________
Layer (type)                 Output Shape              Param #   
=================================================================
conv2d_1 (Conv2D)            (None, 510, 510, 16)      4336      
_________________________________________________________________
batch_normalization_1 (Batch (None, 510, 510, 16)      64        
_________________________________________________________________
max_pooling2d_1 (MaxPooling2 (None, 255, 255, 16)      0         
_________________________________________________________________
conv2d_2 (Conv2D)            (None, 253, 253, 32)      4640      
_________________________________________________________________
batch_normalization_2 (Batch (None, 253, 253, 32)      128       
_________________________________________________________________
max_pooling2d_2 (MaxPooling2 (None, 126, 126, 32)      0         
_________________________________________________________________
conv2d_3 (Conv2D)            (None, 124, 124, 64)      18496     
_________________________________________________________________
batch_normalization_3 (Batch (None, 124, 124, 64)      256       
_________________________________________________________________
conv2d_4 (Conv2D)            (None, 122, 122, 128)     73856     
_________________________________________________________________
batch_normalization_4 (Batch (None, 122, 122, 128)     512       
_________________________________________________________________
max_pooling2d_3 (MaxPooling2 (None, 61, 61, 128)       0         
_________________________________________________________________
global_average_pooling2d_1 ( (None, 128)               0         
_________________________________________________________________
dropout_1 (Dropout)          (None, 128)               0         
_________________________________________________________________
dense_1 (Dense)              (None, 200)               25800     
_________________________________________________________________
dropout_2 (Dropout)          (None, 200)               0         
_________________________________________________________________
dense_2 (Dense)              (None, 100)               20100     
_________________________________________________________________
dropout_3 (Dropout)          (None, 100)               0         
_________________________________________________________________
dense_3 (Dense)              (None, 20)                2020      
_________________________________________________________________
dense_4 (Dense)              (None, 1)                 21        
=================================================================
Total params: 150,229
Trainable params: 149,749
Non-trainable params: 480
_________________________________________________________________
None
Epoch 0
Train on 25 samples, validate on 7 samples
Epoch 1/1

25/25 [==============================] - 9s 353ms/step - loss: 0.9962 - val_loss: 0.9901
Train on 25 samples, validate on 7 samples
…
